frozen_lake_dql_4x4.pt (torch, 3504 bytes, 4 tensors)

fc1.weight f4 [16, 16]
0	0x3dfa5743	0.12223675
1	0x3ed6b13b	0.4193209
2	0x3db941d5	0.090457596
3	0x3ed440f1	0.41455796
4	0xbe3c3680	-0.18380165
5	0xbe2f75e2	-0.17134812
6	0x3d2365d6	0.03989204
7	0x3bda8980	0.0066692233
8	0xbe14902e	-0.14508125
9	0xbe107ae8	-0.14109385
10	0x3d9c7d7e	0.07641123
11	0xbd440c00	-0.047863007
12	0x3e67ce40	0.22637272
13	0xbe5597f0	-0.20858741
14	0x3c597d09	0.01327444
15	0x3e3e299e	0.18570563
16	0x3e73c504	0.23805624
17	0xbdc5b094	-0.0965282
18	0x3d0935c9	0.03349856
19	0xbca05ffa	-0.019577015
20	0x3f2ba469	0.67047745
21	0xbe2e467c	-0.17019075
22	0x3e0fa91a	0.14029351
23	0x3dab82a8	0.0837453
24	0xbe672a6c	-0.22574776
25	0x3e087aae	0.13328049
26	0xbdb116c3	-0.086469196
27	0xbe7a3840	-0.2443552
28	0xbbbea000	-0.0058174133
29	0xbdfd33bc	-0.12363383
30	0xbda7ef04	-0.081998855
31	0x3e23b354	0.15986377
32	0x3e103365	0.14082105
33	0x3e53bd9d	0.206778
34	0x3d318f9a	0.04334984
35	0xbb82d25e	-0.003992363
36	0xbe7b5b0a	-0.24546447
37	0x3e70ce62	0.23516229
38	0xbe7be126	-0.24597606
39	0x3da903d4	0.08252683
40	0x3e988bb2	0.2979408
41	0x3eda09d5	0.42585626
42	0xbd4e873d	-0.050421942
43	0x3dc9fa54	0.098621994
44	0x3d31fd80	0.043454647
45	0x3e5c0ad9	0.21488513
46	0x3ea28695	0.31743303
47	0xbe4efac8	-0.20212853
48	0xbe7b6a3c	-0.24552244
49	0x3ed4781c	0.41497886
50	0xbd9f3684	-0.0777407
51	0x3eaf4655	0.34233347
52	0x3ea5170e	0.32244152
53	0x3de1aaa0	0.11018872
54	0xbd44ca47	-0.04804447
55	0x3e3dabc0	0.18522549
56	0x3ebab0eb	0.36463103
57	0xbe014622	-0.1262441
58	0x3bcf4719	0.006325614
59	0x3d325280	0.04353571
60	0x3db77a10	0.089588284
61	0xbd7fb1f6	-0.062425576
62	0xbd9519ba	-0.072802976
63	0x3d131f00	0.035918236
64	0xbc2333c2	-0.0099610705
65	0x3c0a7aae	0.008452101
66	0x3e1211cb	0.142646
67	0xbe5c0f3a	-0.21490183
68	0xbe6a2d8c	-0.22868937
69	0x3ca458f0	0.02006194
70	0x3e2a96f1	0.16659142
71	0x3dfa38c4	0.122178584
72	0xbe5c5919	-0.21518363
73	0xbe5c4e0e	-0.2151415
74	0x3eb6adb0	0.35679388
75	0xbd61d528	-0.055134922
76	0x3df159a0	0.11784673
77	0xbdb5e6b1	-0.088818915
78	0x3e24fba7	0.16111623
79	0x3dbfb448	0.09360558
80	0x3e2768d0	0.16348577
81	0xbcf7e843	-0.030262118
82	0x3dacadbc	0.08431575
83	0xbc870fae	-0.016486969
84	0x3e0cdc15	0.1375583
85	0xbe5598c0	-0.20859051
86	0xbe9cd7ba	-0.30633336
87	0x3e7baefa	0.24578467
88	0x3e1175ef	0.14205144
89	0x3ec49941	0.38398173
90	0x3e018198	0.12647092
91	0xbe101948	-0.14072144
92	0xbc03b4a0	-0.00803867
93	0xbc024d1b	-0.007952954
94	0x3efc7254	0.49305975
95	0xbe34d2b2	-0.17658499
96	0xbe0b0c55	-0.13578923
97	0x3e0ff454	0.14058048
98	0x3e68b69f	0.22725914
99	0xbe6660be	-0.22497842
100	0xbe619cf4	-0.22032529
101	0xbe69a314	-0.22816116
102	0x3cc1d24c	0.023659848
103	0xbd7ef370	-0.06224388
104	0xbe27785e	-0.1635451
105	0xbe0a4daf	-0.13506196
106	0xbe19eef7	-0.15032564
107	0xbd42f8d8	-0.047600597
108	0x3e0ed92a	0.13950029
109	0xbe1a4147	-0.15063964
110	0xbe0ae9dd	-0.13565774
111	0xb9ba7c00	-0.00035569072
112	0xbdb680a8	-0.08911258
113	0xbe20f684	-0.15719038
114	0x3db2baea	0.08727057
115	0xbe47ef8e	-0.19524977
116	0xbd15e020	-0.036590695
117	0x3e1a658e	0.15077803
118	0x3ef8aa4a	0.4856742
119	0x3d520b70	0.05128044
120	0x3c7e3b56	0.0155170765
121	0x3d460c0f	0.048351344
122	0x3e6b818f	0.22998641
123	0xbe3d5232	-0.18488386
124	0x3dbf0138	0.09326404
125	0x3e814476	0.25247544
126	0x3e8d73f3	0.27627525
127	0x3d2e9958	0.04262671
128	0x3e302f23	0.17205481
129	0x3d6f3c93	0.058407377
130	0x3ea95dff	0.33079526
131	0x3e713677	0.23555933
132	0xbe74f674	-0.2392214
133	0x3d65cf48	0.056105882
134	0xbe6adb89	-0.22935309
135	0x3c6cca80	0.014452577
136	0x3e9f8d69	0.31162575
137	0xbe6a784a	-0.22897449
138	0xbdfc5088	-0.123200476
139	0x3d1273f8	0.035755128
140	0x3e6c519e	0.2307801
141	0x3e94659d	0.28983775
142	0x3edea62d	0.43486157
143	0xbe05cf60	-0.13067389
144	0xbe43904e	-0.19098017
145	0x3e21c8dd	0.1579928
146	0x3daddb23	0.08489063
147	0x3e7902d0	0.24317479
148	0xbe2c0ec7	-0.16802512
149	0xbd3b77e0	-0.04576862
150	0xbe2dbac6	-0.1696578
151	0xbe703160	-0.23456335
152	0xbe580e86	-0.2109929
153	0x3e910817	0.28326485
154	0xbdbe9a6b	-0.09306797
155	0x3e07b006	0.13250741
156	0x3d16b470	0.036793172
157	0x3d95310f	0.07284748
158	0x3e5d918d	0.21637554
159	0xbd9bb924	-0.07603672
160	0xbdf17798	-0.11790389
161	0xbe308dee	-0.17241642
162	0x3e632040	0.22180271
163	0x3d0ab378	0.03386256
164	0xbe56c60e	-0.2097399
165	0xbdf251a0	-0.11831975
166	0x3dbf8640	0.09351778
167	0x3dcccb20	0.099996805
168	0xbe3ff956	-0.18747458
169	0xbe71f93a	-0.23630229
170	0x3f0c96a7	0.5491738
171	0x3d853260	0.06503749
172	0x3d2ed478	0.042683095
173	0xbe303e46	-0.17211255
174	0xbe264776	-0.16238198
175	0x3e14a2c2	0.14515212
176	0x3e417f11	0.18896128
177	0xbe756654	-0.23964816
178	0xbe60e3e4	-0.21961933
179	0x3e2275df	0.15865277
180	0xbd12cc2c	-0.035839245
181	0x3e68860e	0.22707388
182	0xbd46fbf0	-0.04858011
183	0xbb5eca80	-0.003399521
184	0x3f081072	0.53150094
185	0xbe3264f8	-0.17421329
186	0x3d41e91f	0.047341462
187	0x3e781044	0.24224955
188	0x3e67c350	0.226331
189	0xbcb6099b	-0.022221377
190	0xbdd6e6a0	-0.10493207
191	0x3e3d6ea8	0.18499243
192	0xbe4ec0e4	-0.2019077
193	0xbb623f86	-0.0034522726
194	0x3dd6ddbc	0.10491511
195	0xbe295ada	-0.16538563
196	0xbd81311e	-0.063081965
197	0x3e75c848	0.24002182
198	0x3da4bf1a	0.08044262
199	0xbc7f8b00	-0.015597105
200	0xbe21d85c	-0.15805191
201	0x3eb63c80	0.35593033
202	0xbe60f6c4	-0.21969134
203	0xbe248992	-0.16068104
204	0x3e78e23c	0.24305052
205	0x3e9cc128	0.30616117
206	0xbe7eb0a6	-0.24872074
207	0x3afa1a00	0.0019081235
208	0x3e720e72	0.23638323
209	0xbba58c6c	-0.00505214
210	0x3e380ae9	0.17972912
211	0xbeafbfc5	-0.34325996
212	0x3cdc886e	0.026920523
213	0x3dc60dd4	0.09670606
214	0x3e0025ea	0.12514463
215	0x3e3504f8	0.17677677
216	0xbe107b4b	-0.14109533
217	0xbc562e00	-0.013072491
218	0x3d026694	0.031836107
219	0x3e09774e	0.13424417
220	0x3d5fdc98	0.054653734
221	0x3e831900	0.2560501
222	0x3ec5e11d	0.3864831
223	0x3e59a2d2	0.21253517
224	0xbd90d837	-0.0707249
225	0xbe797093	-0.2435935
226	0xbc44ea1d	-0.012018708
227	0x3d3e8b09	0.046519313
228	0x3cec9c30	0.02888307
229	0x3e22e19c	0.15906376
230	0x3db401cb	0.087894045
231	0x3d8bca90	0.06825745
232	0xbe233d7b	-0.15941422
233	0xbd89c72e	-0.06727444
234	0x3ea402d3	0.32033405
235	0x3de62848	0.11238152
236	0x3e7c1388	0.24616826
237	0x3cccddc5	0.025008092
238	0x3ed33e8e	0.41258663
239	0xbbf34700	-0.0074242353
240	0x3e216eb4	0.15764886
241	0x3d112790	0.03543812
242	0xbdc92824	-0.09822109
243	0x3e223e49	0.15844072
244	0xbe1e725a	-0.15473309
245	0xbe6ab084	-0.22918898
246	0x3e46f3aa	0.19428888
247	0xbb8a6a40	-0.004224092
248	0x3dee33e8	0.11630994
249	0x3c86c890	0.016453058
250	0xbe09738c	-0.13422984
251	0x3e09a3b4	0.13441354
252	0x3e47fbe6	0.19529685
253	0x3de8aa1e	0.11360572
254	0xbddcae38	-0.10775417
255	0x3e2f6844	0.17129618

fc1.bias f4 [16]
0	0xbd0c2471	-0.03421444
1	0x3d9fc46a	0.07801135
2	0x3e7739d6	0.24143156
3	0x3d73ea24	0.059549466
4	0x3e5a7ac2	0.21335891
5	0x3edd6820	0.43243504
6	0x3e080bf8	0.13285816
7	0xbca2e34e	-0.019883778
8	0x3e8652da	0.26235086
9	0x3e20ceea	0.15703931
10	0x3ddce071	0.10784996
11	0x3d848c6c	0.06472096
12	0x3dde2847	0.10847526
13	0x3ee99fe3	0.45629796
14	0x3ea103eb	0.31448302
15	0xbe31e765	-0.17373426

out.weight f4 [4, 16]
0	0x3e103156	0.1408132
1	0x3e9db48e	0.30801815
2	0x3e952823	0.29132184
3	0x3ebe2781	0.37139514
4	0x3dca74e9	0.0988558
5	0x3ecee06f	0.40405604
6	0x3bc5ff9e	0.006042435
7	0xbe842912	-0.25812584
8	0x3dde86e2	0.108655706
9	0x3e2e52dc	0.17023796
10	0x3ee6624a	0.44996864
11	0x3e42dda1	0.19029857
12	0x3b9d3178	0.004797157
13	0x3d02219e	0.03177034
14	0x3e8dcd5d	0.27695742
15	0x3d527ce9	0.051388655
16	0xbedbc146	-0.42920893
17	0x3ef757d5	0.48309198
18	0x3d41586d	0.04720347
19	0xbed26fae	-0.4110083
20	0x3e76c4b5	0.24098475
21	0x3e419404	0.1890412
22	0xbe5e78c5	-0.21725757
23	0x3e5b4700	0.21413803
24	0xbd48f3f8	-0.04906079
25	0x3d5a56e3	0.053305518
26	0x3ec63a1c	0.3871621
27	0xbe48c43a	-0.19606104
28	0x3ecbfd14	0.3984152
29	0x3ea8a770	0.32940245
30	0x3e9002a3	0.28127012
31	0x3dbd50ac	0.092439026
32	0x3e62ada2	0.22136548
33	0xbec3b806	-0.38226336
34	0x3eba9a56	0.36445874
35	0xbe3715dd	-0.17879434
36	0xbe5d6f37	-0.21624456
37	0x3e392b2e	0.18082878
38	0x3e0d6666	0.13808593
39	0xbe973256	-0.2953059
40	0x3ec80058	0.39062762
41	0x3ea34cbd	0.31894484
42	0xbf09da35	-0.5384858
43	0x3e7313ff	0.23738097
44	0x3eb84b12	0.35994774
45	0x3e8bf157	0.27332565
46	0x3e478b7e	0.19486806
47	0xbe3059bc	-0.17221731
48	0xbc94e08a	-0.018173475
49	0x3c569cf6	0.013098946
50	0xbe0f226c	-0.13977975
51	0x3ed3ec9e	0.41391462
52	0x3e9ecd35	0.31015936
53	0xbdce4bf5	-0.100730814
54	0x3e52d562	0.20589212
55	0x3e3ad880	0.1824665
56	0x3eb2c07b	0.34912476
57	0xbe07a78f	-0.13247512
58	0x3d0e45e3	0.034734618
59	0x3dc92238	0.0982098
60	0xbe7f0f0e	-0.24908087
61	0x3e36b87c	0.17843813
62	0x3eb91c1a	0.36154252
63	0x3cd75d5f	0.02628964

out.bias f4 [4]
0	0xbe0c3ce6	-0.13695106
1	0x3da1af14	0.078947216
2	0x3cc06a9c	0.023488335
3	0x3e493754	0.19650012
