frozen_lake_dql_8x8.pt (torch, 19824 bytes, 4 tensors)

fc1.weight f4 [64, 64]
00000000: 0096 ddbd 7850 38bd 9ece a7bd e848 d43d
00000010: 8596 2e3e d84b f7bc ef42 1f3e 78ec 193e
00000020: dca7 0fbd 70f5 45bc b0f5 8abc b28a dfbc
00000030: de0c 083c ca9e 6a3d e9a9 54bc f0c0 bf3d
00000040: 2c54 33bd d956 cebc c239 f43d 48ca d73c
00000050: 2101 053c eee7 b2bd 129f b7bd 36ce 23bc
00000060: 2898 f9bc 3058 b3bd e428 6cbd 983b 30bd
00000070: fecd 81bd 6488 013d 3a98 e2bd 5b87 dbbc
00000080: b4bd 35bd 28e2 96bc d0fa 3bbd 6077 693d
00000090: 40a9 403b 919e 0d3d 02a1 85bd dcf4 2ebd
000000a0: b21d 6a3d 904f 5abd 50a2 e53c a438 7bbd
000000b0: 0029 71bd 64b1 ebbd 6a29 c73d 582c d2bc
000000c0: fec1 823d 3234 ffbd 0811 a4bc a00d 0dbd
000000d0: 78d1 573d 08aa 59bd 80e9 d3bd ea88 c2bd
000000e0: 5436 b1bd 8001 353c 00d2 f93b 3878 e93d
000000f0: 70c0 b33d ae98 eabd da56 b8bd ea10 f6bd
00000100: 4c09 95bd 877a 2ebc ca4a a5bd 4f19 af3d
00000110: 1096 32bd ae8e 413d fbca 8c3d c456 253c
00000120: cc6a aabd 30e2 5dbc 00e2 b5bd 7285 8a3d
00000130: b07a cdbc 3740 e9bb 480e c2bd 60b1 aebc
00000140: fab4 f9bd 5329 603d c9d1 1bbb dc54 203d
00000150: a151 d63d 4179 6d3e 9012 24bd 7c80 de3d
00000160: 369a 003b c6b5 f4bd cd4e 5b3d ae3c 4a3e
00000170: c50a ca3d e4ab 7bbd 74fa 08bd 7411 c0bd
00000180: 2280 aabd 2890 90bd 4a19 85bd 704b d0bc
00000190: 603f d7bb 8cfe c7bd 9887 36bd 4dd9 67bb
000001a0: e839 2bbd 58b7 a73c 608d 51bc 4aad edbd
000001b0: 707d 1c3c 0ed0 83bd fc02 2dbd f4d0 9fbd
000001c0: d6d5 a5bd d2bd ec3d 3d1e 633d 6906 973d
000001d0: d277 b2bd 7f55 ba3d 36ba c23d 3abf 3d3c
000001e0: a4b4 cabd b6f7 5d3d 7c40 f6bd b031 a4bd
000001f0: 565d fdbd d8b3 a7bd 205e e73d 1063 3cbd
00000200: 205c 633d 1795 813d a475 a83d c02d 78bb
00000210: f4ef a1bd 9cbd f0bd 90f2 633d bd58 973d
00000220: d13c a23d 7c7d 0abd 5e50 8bbd 84ca 163d
00000230: f075 58bc 30bd 70bd ccea 413d dcd6 973d
00000240: 5087 c83c 4406 abbd c852 db3c 709d f6bc
00000250: 4c22 b6bd 00c0 eb39 86c9 84bd 483f 2d3d
00000260: bc72 61bd 9289 8abd 8004 573c c2e5 113e
00000270: 0382 aa3d 1628 a8bd 026a 883d 2895 913c
00000280: b258 b1bd 9261 92bd 6849 03bd 5c75 d53d
00000290: 6090 4d3c 640b 59bd 3464 2bbd 4078 0cbb
000002a0: c8cf e0bd b053 f3bd 7c49 5d3d 240d ad3d
000002b0: f0c7 73bc 2023 323d f005 193d a6a3 fbbd
000002c0: f002 06bc 8003 12bb c448 3cbd e408 f0bd
000002d0: 90b3 5abc 60fd 34bd 00f9 92bc c6f4 80bd
000002e0: 00b5 88bd 70f3 efbc fce1 1cbd 2050 9c3c
000002f0: 1c11 1cbd 123d e63d ec74 69bd 40ca a4bb
00000300: b8c9 523d 48c8 0fbd 7186 4bbc abf2 82ba
00000310: 17aa 813d f01e 6cbd ecf3 febd eeed d13d
00000320: 9771 f13d dea8 e6bd 2a6d b8bd 02be 09bc
00000330: 28cc adbd 41dd 11bb 5ef4 a93d d1a6 263e
00000340: 0c8e 63bd 85bf b23d 8062 a5bc 5080 5fbc
00000350: a483 a5bd c439 79bd 8018 ebbb 18a5 c0bc
00000360: ba26 a5bd eeca d0bd e5a7 c03d 1d0a 2a3d
00000370: 80f7 263b 34e3 1d3d 56ef b5bb 8b52 213e
00000380: d211 9abd c486 fbbd c7ed b03d 68bd d93c
00000390: b472 65bb c09e a1bb 5545 8c3b aa08 a7bd
000003a0: 46dd edbb 8cd6 553d 40b6 8cbb 4ee5 853d
000003b0: 05ce 853c 91c5 d43c e8a7 dcbc 407e 3abd
000003c0: ca39 fdbd 7c41 d9bd 80ed adbd a815 3cbd
000003d0: ee22 b0bd 6061 32bc e2f0 b3bd c025 bfbd
000003e0: 03ba a03d 5c50 d5bd 027f a8bd 3845 67bd
000003f0: f2bb 9ebd ccf4 a5bd e821 c43d 24b1 54bd
-0.10819626 -0.044998616 -0.08193706 0.10365468 0.17049606 -0.030187532 0.15552877 0.15031612
-0.035072193 -0.012082443 -0.016962856 -0.027287815 0.008303849 0.05728034 -0.012979963 0.09362972
-0.043781444 -0.025187897 0.11925079 0.026341572 0.008117945 -0.08735643 -0.08965887 -0.009997895
-0.030468062 -0.08757055 -0.057656184 -0.043025583 -0.06338118 0.031624213 -0.11064191 -0.026797941
-0.044370368 -0.018418387 -0.04589349 0.05699861 0.0029397756 0.03457505 -0.065248504 -0.042713985
0.057157226 -0.053298533 0.028031498 -0.061333314 -0.05887699 -0.11508444 0.09724696 -0.02565591
0.06384657 -0.12461127 -0.020027652 -0.034436822 0.05269 -0.05314067 -0.10347271 -0.094987705
-0.086529404 0.011047721 0.007623911 0.11399883 0.08776939 -0.114549026 -0.090009406 -0.12014945
-0.07277164 -0.01064933 -0.080709055 0.08549749 -0.043600142 0.04725521 0.06874653 0.010091487
-0.08321151 -0.013542697 -0.08880997 0.06763734 -0.025082916 -0.0071182507 -0.0947538 -0.021324813
-0.12192722 0.05472691 -0.0023776165 0.03914343 0.10464788 0.23190786 -0.040056765 0.1086435
0.0019623167 -0.11948733 0.053541947 0.1974971 0.098653354 -0.061443225 -0.033441976 -0.09378329
-0.08325221 -0.070587456 -0.06498964 -0.025426596 -0.006568834 -0.09765348 -0.044562906 -0.0035377324
-0.04180327 0.020473167 -0.012790054 -0.11605318 0.009551391 -0.06436168 -0.042239174 -0.078035265
-0.080974266 0.11559643 0.05544876 0.073742695 -0.0871426 0.09098338 0.09508173 0.0115812365
-0.09897736 0.054191314 -0.12024018 -0.0801729 -0.12371318 -0.08188599 0.1129725 -0.04599291
0.05550778 0.06327265 0.08225563 -0.0037869066 -0.079070956 -0.11754915 0.055651248 0.07389972
0.07921756 -0.033811077 -0.06802438 0.036814228 -0.013211712 -0.058774173 0.04734306 0.07414028
0.024478585 -0.083508044 0.026772872 -0.030104369 -0.0889326 0.00044965744 -0.0648375 0.042296678
-0.05504106 -0.06764521 0.0131236315 0.14247802 0.08325579 -0.08210771 0.066608444 0.017771319
-0.086594954 -0.07147516 -0.032052428 0.10422775 0.012546629 -0.05298938 -0.041843608 -0.002143398
-0.10977131 -0.118811965 0.05402516 0.08449772 -0.014879212 0.04349053 0.037359178 -0.12287073
-0.008179411 -0.0022279918 -0.045967832 -0.11720446 -0.013348475 -0.04418695 -0.017940998 -0.06296687
-0.06675148 -0.029290885 -0.038301453 0.019081175 -0.038102254 0.11242117 -0.05699627 -0.005028993
0.051461905 -0.035103112 -0.01242219 -0.0009990534 0.0633127 -0.05764669 -0.12448868 0.102504596
0.11789244 -0.112626776 -0.090051964 -0.008407118 -0.08486205 -0.0022257122 0.082985625 0.16274573
-0.05555539 0.08727936 -0.02018857 -0.013641432 -0.08081749 -0.060846105 -0.0071745515 -0.023516223
-0.08064027 -0.10194956 0.09407023 0.04151355 0.0025477111 0.038546756 -0.0055522127 0.15754144
-0.0752293 -0.12281564 0.086391024 0.026579574 -0.0035010995 -0.0049322546 0.004280726 -0.081559494
-0.007259044 0.05220656 -0.004294187 0.06537877 0.01633359 0.025973113 -0.026935533 -0.045530558
-0.12364538 -0.10608193 -0.08492565 -0.04591909 -0.08600412 -0.010887474 -0.08786179 -0.09333372
0.07847979 -0.10415718 -0.0822735 -0.056462497 -0.077506915 -0.08103332 0.095767796 -0.051926747

fc1.bias f4 [64]
00000000: 3f54 94bc 82b5 96bc 5bda b6bd 799f 0fbc
00000010: 24a9 90bd c63e 5bbd 3c2a 983c 7de7 e4bd
00000020: 1491 aabd 879b e13b 8a85 1a3e b56b b0bd
00000030: 643c 093e 35f4 4a3d 1d79 093d 0368 50bd
00000040: d7a2 0d3e 4369 f43d d39f 613d 1bc6 d0bd
00000050: f6f9 a1ba 9fd6 0b3e 358b 0c3e 04ef a3bd
00000060: 8398 bd3d 9425 e23c 89ec 6e3d 2905 593d
00000070: 3ecc 2c3d 4cfe 263d 1768 c5bd 0f75 973c
00000080: a648 7c3c 72f3 1c3e af01 c73c 24b4 86bd
00000090: 5271 d9bb b913 2d3d 2e5a ac3d 01c1 293e
000000a0: c55b 17bd 5e07 d43d a7ec 4dbd 9282 a43d
000000b0: 1fdf b7bd 23f8 a33d 439b b13d 7934 703d
000000c0: 69c0 f0bd 7b2a 873d 1c0a ae3d 7a86 823d
000000d0: 3b0e 12bc 77b5 1b3e 6a4f e93b acd0 093e
000000e0: 28d7 fbbd 4b31 bb3d c472 ef3c c88a 323e
000000f0: a935 75bc 958a 013c a83f 8f3c 1709 3e3d
-0.018106578 -0.018397097 -0.08928367 -0.008766049 -0.07063511 -0.053526662 0.018574826 -0.111769654
-0.08328453 0.0068849954 0.15090004 -0.086142935 0.13401943 0.0495493 0.03356277 -0.050880443
0.1383165 0.119341396 0.05508406 -0.101940356 -0.0012357819 0.1365609 0.13724978 -0.08004573
0.09257605 0.02760581 0.058331046 0.052983437 0.042186968 0.04076986 -0.09638994 0.018488435
0.01539818 0.15327242 0.024292795 -0.06577328 -0.0066358233 0.042255137 0.08415638 0.16577531
-0.036952753 0.10352968 -0.050274517 0.08032717 -0.08978104 0.08006313 0.08672192 0.05864379
-0.11755449 0.065998994 0.08498022 0.063733056 -0.008914526 0.15205942 0.0071200626 0.13458508
-0.12296897 0.09140261 0.02922953 0.17435753 -0.014966407 0.007906576 0.017486408 0.046395388

out.weight f4 [4, 64]
00000000: 707b cf3d 1138 ae3d aea3 963d ba0e 463e
00000010: 2a02 18be d8a5 073e b50d 4fbe 11ea aa3d
00000020: 002e 22be b528 863c 17f9 493d bd31 6b3d
00000030: aa60 b2bd e973 1c3e 9e45 89bd 5779 19be
00000040: 2323 75bd 5bf5 123e 7516 fa3c 99e3 233a
00000050: 9e9c 813e 7532 903d 86f9 9b3d 6dbb 3ebe
00000060: e6f3 aabd 36f6 67ba 2468 553e 5aaa c13d
00000070: e1e1 1ebd b15d d13d b619 2dbe e6c3 903e
00000080: ad45 ccbd 31c9 c5bd 552c 913e ca1d 853c
00000090: a486 7b3b fb11 8dbd 3e0e b3bb d4c5 5bbd
000000a0: 4a6b 5cbc e36c 813c e148 5e3e fae4 913e
000000b0: cb7d 37bd 00bb 64bb ad2b 7d3e fb77 b03d
000000c0: 2c52 563d 4874 8dbd 8b57 293c 3052 5abb
000000d0: e775 1dbe c6f4 2b3e 14d9 293e 9bf3 fdbc
000000e0: 90a6 583c a1a3 583d 13a9 133e a430 05be
000000f0: 5c73 ad3d ff17 2d3e 4e87 d2bd 908d 88bb
00000100: 47e9 123e 8fe4 d6bd 4fd5 86bd 7781 d83c
00000110: c3dd a7bd 7164 023e 4353 333e 650a 473c
00000120: 8ecf 04be e510 293e dcad 4d3e 3414 a93d
00000130: 5150 713e cb50 7d3e 16ce 333d b4c8 2a3c
00000140: c72e 4a3e 84e9 283e b9e6 9c3d a1de ce3d
00000150: 335d 16be 6f6a 613e 1ebd d43d 4a39 e2bd
00000160: 7194 fc3d 6c7e 843e 606f 97bd afb0 223e
00000170: fee6 bf3d 7e9c dfbc 52b5 b8bc 05ac 98bd
00000180: d27c 15bd ee73 923d 305d e63d f7d0 e53d
00000190: 3b30 033e 591b 473a 1596 153e bb9c f83d
000001a0: c24e 1b3d 9703 e8bc aacc 0f3d 6fb7 a5bd
000001b0: 3483 07bb b90b 103e 8e97 77bd 05ca a03e
000001c0: 27f1 e2bd a306 4c3e a7d5 213d e49d 803e
000001d0: 47e6 423c de81 b03d bfe9 643d 00ce cd3d
000001e0: ec46 303d 9a98 6c3e 3c44 e73d 1cf8 fd3d
000001f0: e400 3c3d 9817 003e bbd3 24bd a5bd 7abe
00000200: 9cbe 32bb 45f5 e03d 05fe 36bd 2e4e 82bd
00000210: c263 b0bc 65f8 193e 7a55 463e c92e b13c
00000220: 1ada 02be 009a b03d d0a9 193e 4902 283d
00000230: c07f ac3d 73b5 4e3e 8bf0 873d 19c3 f53d
00000240: 9e05 3f3e c95a 923d 348b 2e3d df22 0a3d
00000250: 937d 7a3e de03 1c3e 745e 373e 11b6 7c3c
00000260: b509 373e 7d87 913c acf0 8a3d d421 303e
00000270: d3ca 5dbd 27ac 53bd 9e00 9a3d 7676 aa3d
00000280: 0b43 3d3d 8208 543e ec35 ff3d 18f0 643d
00000290: 9657 49bc 92d8 f93d 37bd af3d 9c84 893d
000002a0: 8920 3abd dc7c 6e3e 4bc4 153e f1f1 073e
000002b0: 38bd 89bc 4c4e 133e a0fa 0cbd 5a24 413e
000002c0: 0450 92bd 5c46 893c 54e2 1ebc 957b 3d3e
000002d0: 0f32 a5ba 8f1f cf3d f4ea 003c 4f23 3e3d
000002e0: 265c 87bd 1c0f 743e cf1c c5bd 88ae 1f3d
000002f0: 4f28 26be 50e0 d23b 4e9d 51bd 5c2b 773e
00000300: d592 f63d 91ba b63d abe8 41bd 78d3 a1bd
00000310: cf2d a93d 9b64 9d3d 31ba 54bd 0c90 2e3d
00000320: f6a5 59bc 36c9 20bd 5a97 123e 90f2 863d
00000330: 0b2f f33c 0c61 0e3e c714 7d3d 35b8 2d3c
00000340: 2608 d83d 2ad0 e43d f2ce a83d 050b 173e
00000350: ef8e 5e3e a5dd a73d 1e9f 33bc 2201 4b3e
00000360: 04ab a43d cd61 683e 006a 423d 61a7 193e
00000370: e19a 683d 71a1 1f3d e2b5 903d cd70 a73d
00000380: e08c 3dbd df92 1e3e 262f 21bd d9b4 c0bc
00000390: 361b 9abc 47b8 8f3d 3224 99bc 2d86 ab3d
000003a0: 8fa9 61bd 02e8 b83d eac6 113d cf3d 39bd
000003b0: eccc 97bd 1367 883d 1288 8ebd 6c75 5f3e
000003c0: 5079 b2bc 7b09 173e 90f5 073e 7f1f 463e
000003d0: 481b a13d ee04 a03c 6951 b2bc f737 4fbd
000003e0: 6ce3 74bd 12ed 243e aec3 5fbd 8163 093e
000003f0: 8974 50bc 41e5 823d bc97 9abd b114 d63d
0.10130966 0.085067876 0.07355438 0.19341555 -0.14844576 0.13246858 -0.20220073 0.08345426
-0.1583786 0.016376833 0.049309816 0.05742048 -0.087098435 0.15278591 -0.067027315 -0.14987694
-0.059847962 0.14351408 0.030528286 0.0006251871 0.25314802 0.07040874 0.07615952 -0.18626185
-0.08347301 -0.0008848639 0.20840508 0.0945632 -0.038789634 0.10222948 -0.16904339 0.2827446
-0.09974227 -0.09657515 0.28354135 0.016249556 0.0038379813 -0.06888195 -0.0054643443 -0.05365546
-0.013453314 0.015798992 0.21707489 0.28495008 -0.0447977 -0.00349015 0.24723692 0.086166345
0.05232446 -0.069069445 0.010335813 -0.0033313148 -0.15377007 0.16792592 0.16586715 -0.03099995
0.013223305 0.052890424 0.14419965 -0.13006836 0.08469269 0.16903685 -0.102797136 -0.004167266
0.143468 -0.10492813 -0.06583654 0.026428921 -0.081965946 0.12733628 0.1751223 0.012148474
-0.12969801 0.16510351 0.20085853 0.082558066 0.23565795 0.24737851 0.04389771 0.010423828
0.19744407 0.16495329 0.07661194 0.10101057 -0.1468399 0.22013257 0.10387634 -0.11046083
0.123330005 0.25877702 -0.0739429 0.15887712 0.0937023 -0.027296301 -0.022547398 -0.07454685
-0.03649599 0.07151018 0.11248243 0.112214975 0.12811367 0.00075953227 0.14608033 0.12139269
0.037916906 -0.028322024 0.035107292 -0.08091628 -0.0020677568 0.14066972 -0.06044727 0.3140413
-0.110811524 0.19924407 0.039510395 0.2512046 0.011895723 0.0861852 0.05588698 0.10049057
0.043036386 0.23105088 0.112923115 0.12400839 0.045899287 0.12509 -0.040240984 -0.24486406
-0.0027274257 0.109842815 -0.044675846 -0.06362568 -0.021531943 0.15036161 0.19368544 0.021628754
-0.12778512 0.08623123 0.15006185 0.041017804 0.08422804 0.20186405 0.06637677 0.120001025
0.18654487 0.07146222 0.042613223 0.033724662 0.24461965 0.1523585 0.17907125 0.015424267
0.17874797 0.017764801 0.06784186 0.17200404 -0.054148506 -0.05167785 0.07519649 0.08323376
0.046206515 0.2070637 0.12461457 0.055893034 -0.0122889485 0.12199511 0.08581012 0.06714746
-0.045441184 0.23289818 0.14625661 0.13275887 -0.01681386 0.14385337 -0.034418702 0.18861523
-0.07144168 0.016757183 -0.0096975155 0.18504174 -0.001260342 0.10113441 0.007868517 0.04642039
-0.06609373 0.23833889 -0.096246354 0.038984805 -0.16226314 0.0064354315 -0.051175408 0.24137634
0.12039725 0.089223035 -0.04734103 -0.079016626 0.082606904 0.076852046 -0.05193538 0.042617843
-0.013284197 -0.03925439 0.14315549 0.06589234 0.029685518 0.13904208 0.061787393 0.010603
0.10548429 0.11172517 0.08242597 0.14750297 0.21734212 0.08196572 -0.010963229 0.19824651
0.08040431 0.22693558 0.04746437 0.15005256 0.05678833 0.038972322 0.070659414 0.08175812
-0.046276927 0.15485714 -0.039351605 -0.023523735 -0.018811803 0.0701757 -0.018694017 0.083752014
-0.055093344 0.09028627 0.03559009 -0.04522496 -0.074121326 0.06660285 -0.06959547 0.21822137
-0.021786362 0.1474971 0.13277268 0.19347952 0.078665316 0.0195336 -0.021767335 -0.05059048
-0.0597872 0.1610606 -0.054629974 0.13416864 -0.012723097 0.06391383 -0.07548472 0.10453165

out.bias f4 [4]
00000000: 9e0e 073e 3994 4abd d72b 36bc 8819 bd3d
0.1318917 -0.049457762 -0.011118851 0.09233385
